{"modelTopology":{"class_name":"Sequential","config":{"name":"sequential_1","layers":[{"class_name":"InputLayer","config":{"batch_input_shape":[null,200,200,3],"dtype":"float32","sparse":false,"name":"input1"}},{"class_name":"Conv2D","config":{"filters":16,"kernel_initializer":{"class_name":"VarianceScaling","config":{"scale":1,"mode":"fan_avg","distribution":"normal","seed":null}},"kernel_regularizer":{"class_name":"L1L2","config":{"l1":0,"l2":0.001}},"kernel_constraint":null,"kernel_size":[3,3],"strides":[1,1],"padding":"same","data_format":"channels_last","dilation_rate":[1,1],"activation":"relu","use_bias":true,"bias_initializer":{"class_name":"Zeros","config":{}},"bias_regularizer":null,"activity_regularizer":null,"bias_constraint":null,"name":"conv2d_Conv2D1","trainable":true}},{"class_name":"BatchNormalization","config":{"axis":-1,"momentum":0.99,"epsilon":0.001,"center":true,"scale":true,"beta_initializer":{"class_name":"Zeros","config":{}},"gamma_initializer":{"class_name":"Ones","config":{}},"moving_mean_initializer":{"class_name":"Zeros","config":{}},"moving_variance_initializer":{"class_name":"Ones","config":{}},"beta_regularizer":null,"gamma_regularizer":null,"beta_constraint":null,"gamma_constraint":null,"name":"batch_normalization_BatchNormalization1","trainable":true}},{"class_name":"MaxPooling2D","config":{"pool_size":[2,2],"padding":"valid","strides":[2,2],"data_format":"channels_last","name":"max_pooling2d_MaxPooling2D1","trainable":true}},{"class_name":"Conv2D","config":{"filters":32,"kernel_initializer":{"class_name":"VarianceScaling","config":{"scale":1,"mode":"fan_avg","distribution":"normal","seed":null}},"kernel_regularizer":{"class_name":"L1L2","config":{"l1":0,"l2":0.001}},"kernel_constraint":null,"kernel_size":[3,3],"strides":[1,1],"padding":"same","data_format":"channels_last","dilation_rate":[1,1],"activation":"relu","use_bias":true,"bias_initializer":{"class_name":"Zeros","config":{}},"bias_regularizer":null,"activity_regularizer":null,"bias_constraint":null,"name":"conv2d_Conv2D2","trainable":true}},{"class_name":"BatchNormalization","config":{"axis":-1,"momentum":0.99,"epsilon":0.001,"center":true,"scale":true,"beta_initializer":{"class_name":"Zeros","config":{}},"gamma_initializer":{"class_name":"Ones","config":{}},"moving_mean_initializer":{"class_name":"Zeros","config":{}},"moving_variance_initializer":{"class_name":"Ones","config":{}},"beta_regularizer":null,"gamma_regularizer":null,"beta_constraint":null,"gamma_constraint":null,"name":"batch_normalization_BatchNormalization2","trainable":true}},{"class_name":"MaxPooling2D","config":{"pool_size":[2,2],"padding":"valid","strides":[2,2],"data_format":"channels_last","name":"max_pooling2d_MaxPooling2D2","trainable":true}},{"class_name":"Conv2D","config":{"filters":64,"kernel_initializer":{"class_name":"VarianceScaling","config":{"scale":1,"mode":"fan_avg","distribution":"normal","seed":null}},"kernel_regularizer":{"class_name":"L1L2","config":{"l1":0,"l2":0.001}},"kernel_constraint":null,"kernel_size":[3,3],"strides":[1,1],"padding":"same","data_format":"channels_last","dilation_rate":[1,1],"activation":"relu","use_bias":true,"bias_initializer":{"class_name":"Zeros","config":{}},"bias_regularizer":null,"activity_regularizer":null,"bias_constraint":null,"name":"conv2d_Conv2D3","trainable":true}},{"class_name":"BatchNormalization","config":{"axis":-1,"momentum":0.99,"epsilon":0.001,"center":true,"scale":true,"beta_initializer":{"class_name":"Zeros","config":{}},"gamma_initializer":{"class_name":"Ones","config":{}},"moving_mean_initializer":{"class_name":"Zeros","config":{}},"moving_variance_initializer":{"class_name":"Ones","config":{}},"beta_regularizer":null,"gamma_regularizer":null,"beta_constraint":null,"gamma_constraint":null,"name":"batch_normalization_BatchNormalization3","trainable":true}},{"class_name":"MaxPooling2D","config":{"pool_size":[2,2],"padding":"valid","strides":[2,2],"data_format":"channels_last","name":"max_pooling2d_MaxPooling2D3","trainable":true}},{"class_name":"Conv2D","config":{"filters":128,"kernel_initializer":{"class_name":"VarianceScaling","config":{"scale":1,"mode":"fan_avg","distribution":"normal","seed":null}},"kernel_regularizer":{"class_name":"L1L2","config":{"l1":0,"l2":0.001}},"kernel_constraint":null,"kernel_size":[3,3],"strides":[1,1],"padding":"same","data_format":"channels_last","dilation_rate":[1,1],"activation":"relu","use_bias":true,"bias_initializer":{"class_name":"Zeros","config":{}},"bias_regularizer":null,"activity_regularizer":null,"bias_constraint":null,"name":"conv2d_Conv2D4","trainable":true}},{"class_name":"BatchNormalization","config":{"axis":-1,"momentum":0.99,"epsilon":0.001,"center":true,"scale":true,"beta_initializer":{"class_name":"Zeros","config":{}},"gamma_initializer":{"class_name":"Ones","config":{}},"moving_mean_initializer":{"class_name":"Zeros","config":{}},"moving_variance_initializer":{"class_name":"Ones","config":{}},"beta_regularizer":null,"gamma_regularizer":null,"beta_constraint":null,"gamma_constraint":null,"name":"batch_normalization_BatchNormalization4","trainable":true}},{"class_name":"MaxPooling2D","config":{"pool_size":[2,2],"padding":"valid","strides":[2,2],"data_format":"channels_last","name":"max_pooling2d_MaxPooling2D4","trainable":true}},{"class_name":"Flatten","config":{"name":"flatten_Flatten1","trainable":true}},{"class_name":"Dense","config":{"units":256,"activation":"relu","use_bias":true,"kernel_initializer":{"class_name":"VarianceScaling","config":{"scale":1,"mode":"fan_avg","distribution":"normal","seed":null}},"bias_initializer":{"class_name":"Zeros","config":{}},"kernel_regularizer":{"class_name":"L1L2","config":{"l1":0,"l2":0.001}},"bias_regularizer":null,"activity_regularizer":null,"kernel_constraint":null,"bias_constraint":null,"name":"dense_Dense1","trainable":true}},{"class_name":"Dropout","config":{"rate":0.5,"noise_shape":null,"seed":null,"name":"dropout_Dropout1","trainable":true}},{"class_name":"Dense","config":{"units":2,"activation":"softmax","use_bias":true,"kernel_initializer":{"class_name":"VarianceScaling","config":{"scale":1,"mode":"fan_avg","distribution":"normal","seed":null}},"bias_initializer":{"class_name":"Zeros","config":{}},"kernel_regularizer":null,"bias_regularizer":null,"activity_regularizer":null,"kernel_constraint":null,"bias_constraint":null,"name":"dense_Dense2","trainable":true}}]},"keras_version":"tfjs-layers 4.19.0","backend":"tensor_flow.js"},"weightsManifest":[{"paths":["weights.bin"],"weights":[{"name":"conv2d_Conv2D1/kernel","shape":[3,3,3,16],"dtype":"float32"},{"name":"conv2d_Conv2D1/bias","shape":[16],"dtype":"float32"},{"name":"batch_normalization_BatchNormalization1/gamma","shape":[16],"dtype":"float32"},{"name":"batch_normalization_BatchNormalization1/beta","shape":[16],"dtype":"float32"},{"name":"conv2d_Conv2D2/kernel","shape":[3,3,16,32],"dtype":"float32"},{"name":"conv2d_Conv2D2/bias","shape":[32],"dtype":"float32"},{"name":"batch_normalization_BatchNormalization2/gamma","shape":[32],"dtype":"float32"},{"name":"batch_normalization_BatchNormalization2/beta","shape":[32],"dtype":"float32"},{"name":"conv2d_Conv2D3/kernel","shape":[3,3,32,64],"dtype":"float32"},{"name":"conv2d_Conv2D3/bias","shape":[64],"dtype":"float32"},{"name":"batch_normalization_BatchNormalization3/gamma","shape":[64],"dtype":"float32"},{"name":"batch_normalization_BatchNormalization3/beta","shape":[64],"dtype":"float32"},{"name":"conv2d_Conv2D4/kernel","shape":[3,3,64,128],"dtype":"float32"},{"name":"conv2d_Conv2D4/bias","shape":[128],"dtype":"float32"},{"name":"batch_normalization_BatchNormalization4/gamma","shape":[128],"dtype":"float32"},{"name":"batch_normalization_BatchNormalization4/beta","shape":[128],"dtype":"float32"},{"name":"dense_Dense1/kernel","shape":[18432,256],"dtype":"float32"},{"name":"dense_Dense1/bias","shape":[256],"dtype":"float32"},{"name":"dense_Dense2/kernel","shape":[256,2],"dtype":"float32"},{"name":"dense_Dense2/bias","shape":[2],"dtype":"float32"},{"name":"batch_normalization_BatchNormalization1/moving_mean","shape":[16],"dtype":"float32"},{"name":"batch_normalization_BatchNormalization1/moving_variance","shape":[16],"dtype":"float32"},{"name":"batch_normalization_BatchNormalization2/moving_mean","shape":[32],"dtype":"float32"},{"name":"batch_normalization_BatchNormalization2/moving_variance","shape":[32],"dtype":"float32"},{"name":"batch_normalization_BatchNormalization3/moving_mean","shape":[64],"dtype":"float32"},{"name":"batch_normalization_BatchNormalization3/moving_variance","shape":[64],"dtype":"float32"},{"name":"batch_normalization_BatchNormalization4/moving_mean","shape":[128],"dtype":"float32"},{"name":"batch_normalization_BatchNormalization4/moving_variance","shape":[128],"dtype":"float32"}]}],"format":"layers-model","generatedBy":"TensorFlow.js tfjs-layers v4.19.0","convertedBy":null}